…
wandb: Run `wandb offline` to turn off syncing.
wandb: Syncing run genial-moon-12
wandb: ⭐️ View project at https://wandb.ai/mupparapusohan-iiit-hyderabad/gene-finding
wandb: 🚀 View run at https://wandb.ai/mupparapusohan-iiit-hyderabad/gene-finding/runs/ctro2pch
output_dir ./downstream_tasks/gene_finding/resnet-supervised/
device cuda
Loaded encoder weights from /scratch/BEND/convnet_mlm_final.pt
ConvNetForSupervised(
  (encoder): ConvNetModel(
    (embedding): OneHotEmbedding(hidden_size=256)
    (encoder): Sequential(
      (0): ConvLayer(
        (conv): Sequential(
          (0): TransposeLayer()
          (1): Conv1d(256, 256, kernel_size=(3,), stride=(1,), padding=same)
          (2): TransposeLayer()
          (3): GELU(approximate='none')
          (4): LayerNorm((256,), eps=1e-05, elementwise_affine=True)
        )
        (ffn): Sequential(
          (0): Linear(in_features=256, out_features=256, bias=True)
          (1): GELU(approximate='none')
          (2): LayerNorm((256,), eps=1e-05, elementwise_affine=True)
        )
      )
      (1): ConvLayer(
        (conv): Sequential(
          (0): TransposeLayer()
          (1): Conv1d(256, 256, kernel_size=(3,), stride=(1,), padding=same, dilation=(2,))
          (2): TransposeLayer()
          (3): GELU(approximate='none')
          (4): LayerNorm((256,), eps=1e-05, elementwise_affine=True)
        )
        (ffn): Sequential(
          (0): Linear(in_features=256, out_features=256, bias=True)
          (1): GELU(approximate='none')
          (2): LayerNorm((256,), eps=1e-05, elementwise_affine=True)
        )
      )
      (2): ConvLayer(
        (conv): Sequential(
          (0): TransposeLayer()
          (1): Conv1d(256, 256, kernel_size=(3,), stride=(1,), padding=same, dilation=(4,))
          (2): TransposeLayer()
          (3): GELU(approximate='none')
          (4): LayerNorm((256,), eps=1e-05, elementwise_affine=True)
        )
        (ffn): Sequential(
          (0): Linear(in_features=256, out_features=256, bias=True)
          (1): GELU(approximate='none')
          (2): LayerNorm((256,), eps=1e-05, elementwise_affine=True)
        )
      )
      (3): ConvLayer(
        (conv): Sequential(
          (0): TransposeLayer()
          (1): Conv1d(256, 256, kernel_size=(3,), stride=(1,), padding=same, dilation=(8,))
          (2): TransposeLayer()
          (3): GELU(approximate='none')
          (4): LayerNorm((256,), eps=1e-05, elementwise_affine=True)
        )
        (ffn): Sequential(
          (0): Linear(in_features=256, out_features=256, bias=True)
          (1): GELU(approximate='none')
          (2): LayerNorm((256,), eps=1e-05, elementwise_affine=True)
        )
      )
      (4): ConvLayer(
        (conv): Sequential(
          (0): TransposeLayer()
          (1): Conv1d(256, 256, kernel_size=(3,), stride=(1,), padding=same, dilation=(16,))
          (2): TransposeLayer()
          (3): GELU(approximate='none')
          (4): LayerNorm((256,), eps=1e-05, elementwise_affine=True)
        )
        (ffn): Sequential(
          (0): Linear(in_features=256, out_features=256, bias=True)
          (1): GELU(approximate='none')
          (2): LayerNorm((256,), eps=1e-05, elementwise_affine=True)
        )
      )
      (5): ConvLayer(
        (conv): Sequential(
          (0): TransposeLayer()
          (1): Conv1d(256, 256, kernel_size=(3,), stride=(1,), padding=same, dilation=(32,))
          (2): TransposeLayer()
          (3): GELU(approximate='none')
          (4): LayerNorm((256,), eps=1e-05, elementwise_affine=True)
        )
        (ffn): Sequential(
          (0): Linear(in_features=256, out_features=256, bias=True)
          (1): GELU(approximate='none')
          (2): LayerNorm((256,), eps=1e-05, elementwise_affine=True)
        )
      )
      (6): ConvLayer(
        (conv): Sequential(
          (0): TransposeLayer()
          (1): Conv1d(256, 256, kernel_size=(3,), stride=(1,), padding=same)
          (2): TransposeLayer()
          (3): GELU(approximate='none')
          (4): LayerNorm((256,), eps=1e-05, elementwise_affine=True)
        )
        (ffn): Sequential(
          (0): Linear(in_features=256, out_features=256, bias=True)
          (1): GELU(approximate='none')
          (2): LayerNorm((256,), eps=1e-05, elementwise_affine=True)
        )
      )
      (7): ConvLayer(
        (conv): Sequential(
          (0): TransposeLayer()
          (1): Conv1d(256, 256, kernel_size=(3,), stride=(1,), padding=same, dilation=(2,))
          (2): TransposeLayer()
          (3): GELU(approximate='none')
          (4): LayerNorm((256,), eps=1e-05, elementwise_affine=True)
        )
        (ffn): Sequential(
          (0): Linear(in_features=256, out_features=256, bias=True)
          (1): GELU(approximate='none')
          (2): LayerNorm((256,), eps=1e-05, elementwise_affine=True)
        )
      )
      (8): ConvLayer(
        (conv): Sequential(
          (0): TransposeLayer()
          (1): Conv1d(256, 256, kernel_size=(3,), stride=(1,), padding=same, dilation=(4,))
          (2): TransposeLayer()
          (3): GELU(approximate='none')
          (4): LayerNorm((256,), eps=1e-05, elementwise_affine=True)
        )
        (ffn): Sequential(
          (0): Linear(in_features=256, out_features=256, bias=True)
          (1): GELU(approximate='none')
          (2): LayerNorm((256,), eps=1e-05, elementwise_affine=True)
        )
      )
      (9): ConvLayer(
        (conv): Sequential(
          (0): TransposeLayer()
          (1): Conv1d(256, 256, kernel_size=(3,), stride=(1,), padding=same, dilation=(8,))
          (2): TransposeLayer()
          (3): GELU(approximate='none')
          (4): LayerNorm((256,), eps=1e-05, elementwise_affine=True)
        )
        (ffn): Sequential(
          (0): Linear(in_features=256, out_features=256, bias=True)
          (1): GELU(approximate='none')
          (2): LayerNorm((256,), eps=1e-05, elementwise_affine=True)
        )
      )
      (10): ConvLayer(
        (conv): Sequential(
          (0): TransposeLayer()
          (1): Conv1d(256, 256, kernel_size=(3,), stride=(1,), padding=same, dilation=(16,))
          (2): TransposeLayer()
          (3): GELU(approximate='none')
          (4): LayerNorm((256,), eps=1e-05, elementwise_affine=True)
        )
        (ffn): Sequential(
          (0): Linear(in_features=256, out_features=256, bias=True)
          (1): GELU(approximate='none')
          (2): LayerNorm((256,), eps=1e-05, elementwise_affine=True)
        )
      )
      (11): ConvLayer(
        (conv): Sequential(
          (0): TransposeLayer()
          (1): Conv1d(256, 256, kernel_size=(3,), stride=(1,), padding=same, dilation=(32,))
          (2): TransposeLayer()
          (3): GELU(approximate='none')
          (4): LayerNorm((256,), eps=1e-05, elementwise_affine=True)
        )
        (ffn): Sequential(
          (0): Linear(in_features=256, out_features=256, bias=True)
          (1): GELU(approximate='none')
          (2): LayerNorm((256,), eps=1e-05, elementwise_affine=True)
        )
      )
      (12): ConvLayer(
        (conv): Sequential(
          (0): TransposeLayer()
          (1): Conv1d(256, 256, kernel_size=(3,), stride=(1,), padding=same)
          (2): TransposeLayer()
          (3): GELU(approximate='none')
          (4): LayerNorm((256,), eps=1e-05, elementwise_affine=True)
        )
        (ffn): Sequential(
          (0): Linear(in_features=256, out_features=256, bias=True)
          (1): GELU(approximate='none')
          (2): LayerNorm((256,), eps=1e-05, elementwise_affine=True)
        )
      )
      (13): ConvLayer(
        (conv): Sequential(
          (0): TransposeLayer()
          (1): Conv1d(256, 256, kernel_size=(3,), stride=(1,), padding=same, dilation=(2,))
          (2): TransposeLayer()
          (3): GELU(approximate='none')
          (4): LayerNorm((256,), eps=1e-05, elementwise_affine=True)
        )
        (ffn): Sequential(
          (0): Linear(in_features=256, out_features=256, bias=True)
          (1): GELU(approximate='none')
          (2): LayerNorm((256,), eps=1e-05, elementwise_affine=True)
        )
      )
      (14): ConvLayer(
        (conv): Sequential(
          (0): TransposeLayer()
          (1): Conv1d(256, 256, kernel_size=(3,), stride=(1,), padding=same, dilation=(4,))
          (2): TransposeLayer()
          (3): GELU(approximate='none')
          (4): LayerNorm((256,), eps=1e-05, elementwise_affine=True)
        )
        (ffn): Sequential(
          (0): Linear(in_features=256, out_features=256, bias=True)
          (1): GELU(approximate='none')
          (2): LayerNorm((256,), eps=1e-05, elementwise_affine=True)
        )
      )
      (15): ConvLayer(
        (conv): Sequential(
          (0): TransposeLayer()
          (1): Conv1d(256, 256, kernel_size=(3,), stride=(1,), padding=same, dilation=(8,))
          (2): TransposeLayer()
          (3): GELU(approximate='none')
          (4): LayerNorm((256,), eps=1e-05, elementwise_affine=True)
        )
        (ffn): Sequential(
          (0): Linear(in_features=256, out_features=256, bias=True)
          (1): GELU(approximate='none')
          (2): LayerNorm((256,), eps=1e-05, elementwise_affine=True)
        )
      )
      (16): ConvLayer(
        (conv): Sequential(
          (0): TransposeLayer()
          (1): Conv1d(256, 256, kernel_size=(3,), stride=(1,), padding=same, dilation=(16,))
          (2): TransposeLayer()
          (3): GELU(approximate='none')
          (4): LayerNorm((256,), eps=1e-05, elementwise_affine=True)
        )
        (ffn): Sequential(
          (0): Linear(in_features=256, out_features=256, bias=True)
          (1): GELU(approximate='none')
          (2): LayerNorm((256,), eps=1e-05, elementwise_affine=True)
        )
      )
      (17): ConvLayer(
        (conv): Sequential(
          (0): TransposeLayer()
          (1): Conv1d(256, 256, kernel_size=(3,), stride=(1,), padding=same, dilation=(32,))
          (2): TransposeLayer()
          (3): GELU(approximate='none')
          (4): LayerNorm((256,), eps=1e-05, elementwise_affine=True)
        )
        (ffn): Sequential(
          (0): Linear(in_features=256, out_features=256, bias=True)
          (1): GELU(approximate='none')
          (2): LayerNorm((256,), eps=1e-05, elementwise_affine=True)
        )
      )
      (18): ConvLayer(
        (conv): Sequential(
          (0): TransposeLayer()
          (1): Conv1d(256, 256, kernel_size=(3,), stride=(1,), padding=same)
          (2): TransposeLayer()
          (3): GELU(approximate='none')
          (4): LayerNorm((256,), eps=1e-05, elementwise_affine=True)
        )
        (ffn): Sequential(
          (0): Linear(in_features=256, out_features=256, bias=True)
          (1): GELU(approximate='none')
          (2): LayerNorm((256,), eps=1e-05, elementwise_affine=True)
        )
      )
      (19): ConvLayer(
        (conv): Sequential(
          (0): TransposeLayer()
          (1): Conv1d(256, 256, kernel_size=(3,), stride=(1,), padding=same, dilation=(2,))
          (2): TransposeLayer()
          (3): GELU(approximate='none')
          (4): LayerNorm((256,), eps=1e-05, elementwise_affine=True)
        )
        (ffn): Sequential(
          (0): Linear(in_features=256, out_features=256, bias=True)
          (1): GELU(approximate='none')
          (2): LayerNorm((256,), eps=1e-05, elementwise_affine=True)
        )
      )
      (20): ConvLayer(
        (conv): Sequential(
          (0): TransposeLayer()
          (1): Conv1d(256, 256, kernel_size=(3,), stride=(1,), padding=same, dilation=(4,))
          (2): TransposeLayer()
          (3): GELU(approximate='none')
          (4): LayerNorm((256,), eps=1e-05, elementwise_affine=True)
        )
        (ffn): Sequential(
          (0): Linear(in_features=256, out_features=256, bias=True)
          (1): GELU(approximate='none')
          (2): LayerNorm((256,), eps=1e-05, elementwise_affine=True)
        )
      )
      (21): ConvLayer(
        (conv): Sequential(
          (0): TransposeLayer()
          (1): Conv1d(256, 256, kernel_size=(3,), stride=(1,), padding=same, dilation=(8,))
          (2): TransposeLayer()
          (3): GELU(approximate='none')
          (4): LayerNorm((256,), eps=1e-05, elementwise_affine=True)
        )
        (ffn): Sequential(
          (0): Linear(in_features=256, out_features=256, bias=True)
          (1): GELU(approximate='none')
          (2): LayerNorm((256,), eps=1e-05, elementwise_affine=True)
        )
      )
      (22): ConvLayer(
        (conv): Sequential(
          (0): TransposeLayer()
          (1): Conv1d(256, 256, kernel_size=(3,), stride=(1,), padding=same, dilation=(16,))
          (2): TransposeLayer()
          (3): GELU(approximate='none')
          (4): LayerNorm((256,), eps=1e-05, elementwise_affine=True)
        )
        (ffn): Sequential(
          (0): Linear(in_features=256, out_features=256, bias=True)
          (1): GELU(approximate='none')
          (2): LayerNorm((256,), eps=1e-05, elementwise_affine=True)
        )
      )
      (23): ConvLayer(
        (conv): Sequential(
          (0): TransposeLayer()
          (1): Conv1d(256, 256, kernel_size=(3,), stride=(1,), padding=same, dilation=(32,))
          (2): TransposeLayer()
          (3): GELU(approximate='none')
          (4): LayerNorm((256,), eps=1e-05, elementwise_affine=True)
        )
        (ffn): Sequential(
          (0): Linear(in_features=256, out_features=256, bias=True)
          (1): GELU(approximate='none')
          (2): LayerNorm((256,), eps=1e-05, elementwise_affine=True)
        )
      )
      (24): ConvLayer(
        (conv): Sequential(
          (0): TransposeLayer()
          (1): Conv1d(256, 256, kernel_size=(3,), stride=(1,), padding=same)
          (2): TransposeLayer()
          (3): GELU(approximate='none')
          (4): LayerNorm((256,), eps=1e-05, elementwise_affine=True)
        )
        (ffn): Sequential(
          (0): Linear(in_features=256, out_features=256, bias=True)
          (1): GELU(approximate='none')
          (2): LayerNorm((256,), eps=1e-05, elementwise_affine=True)
        )
      )
      (25): ConvLayer(
        (conv): Sequential(
          (0): TransposeLayer()
          (1): Conv1d(256, 256, kernel_size=(3,), stride=(1,), padding=same, dilation=(2,))
          (2): TransposeLayer()
          (3): GELU(approximate='none')
          (4): LayerNorm((256,), eps=1e-05, elementwise_affine=True)
        )
        (ffn): Sequential(
          (0): Linear(in_features=256, out_features=256, bias=True)
          (1): GELU(approximate='none')
          (2): LayerNorm((256,), eps=1e-05, elementwise_affine=True)
        )
      )
      (26): ConvLayer(
        (conv): Sequential(
          (0): TransposeLayer()
          (1): Conv1d(256, 256, kernel_size=(3,), stride=(1,), padding=same, dilation=(4,))
          (2): TransposeLayer()
          (3): GELU(approximate='none')
          (4): LayerNorm((256,), eps=1e-05, elementwise_affine=True)
        )
        (ffn): Sequential(
          (0): Linear(in_features=256, out_features=256, bias=True)
          (1): GELU(approximate='none')
          (2): LayerNorm((256,), eps=1e-05, elementwise_affine=True)
        )
      )
      (27): ConvLayer(
        (conv): Sequential(
          (0): TransposeLayer()
          (1): Conv1d(256, 256, kernel_size=(3,), stride=(1,), padding=same, dilation=(8,))
          (2): TransposeLayer()
          (3): GELU(approximate='none')
          (4): LayerNorm((256,), eps=1e-05, elementwise_affine=True)
        )
        (ffn): Sequential(
          (0): Linear(in_features=256, out_features=256, bias=True)
          (1): GELU(approximate='none')
          (2): LayerNorm((256,), eps=1e-05, elementwise_affine=True)
        )
      )
      (28): ConvLayer(
        (conv): Sequential(
          (0): TransposeLayer()
          (1): Conv1d(256, 256, kernel_size=(3,), stride=(1,), padding=same, dilation=(16,))
          (2): TransposeLayer()
          (3): GELU(approximate='none')
          (4): LayerNorm((256,), eps=1e-05, elementwise_affine=True)
        )
        (ffn): Sequential(
          (0): Linear(in_features=256, out_features=256, bias=True)
          (1): GELU(approximate='none')
          (2): LayerNorm((256,), eps=1e-05, elementwise_affine=True)
        )
      )
      (29): ConvLayer(
        (conv): Sequential(
          (0): TransposeLayer()
          (1): Conv1d(256, 256, kernel_size=(3,), stride=(1,), padding=same, dilation=(32,))
          (2): TransposeLayer()
          (3): GELU(approximate='none')
          (4): LayerNorm((256,), eps=1e-05, elementwise_affine=True)
        )
        (ffn): Sequential(
          (0): Linear(in_features=256, out_features=256, bias=True)
          (1): GELU(approximate='none')
          (2): LayerNorm((256,), eps=1e-05, elementwise_affine=True)
        )
      )
    )
  )
  (downstream_cnn): CNN(
    (onehot_embedding): OneHotEmbedding(hidden_size=256)
    (conv1): Sequential(
      (0): TransposeLayer()
      (1): Conv1d(256, 64, kernel_size=(3,), stride=(1,), padding=(1,))
      (2): TransposeLayer()
      (3): GELU(approximate='none')
    )
    (conv2): Sequential(
      (0): TransposeLayer()
      (1): Conv1d(64, 64, kernel_size=(3,), stride=(1,), padding=(1,))
      (2): TransposeLayer()
      (3): GELU(approximate='none')
    )
    (linear): Sequential(
      (0): Linear(in_features=64, out_features=9, bias=True)
    )
    (softmax): Softmax(dim=-1)
    (softplus): Softplus(beta=1.0, threshold=20.0)
    (sigmoid): Sigmoid()
    (crf): CRF()
  )
  (softmax): Softmax(dim=-1)
  (sigmoid): Sigmoid()
  (crf): CRF()
)/scratch/BEND/myenv/lib/python3.12/site-packages/webdataset/compat.py:389: UserWarning: WebDataset(shardshuffle=...) is None; set explicitly to False or a number
…
